num_ai_detector/mnist_cnn.onnx (onnx, 148539 bytes, 8 tensors)

fc1.weight f4 [128, 256]
-0.0015701706 -0.04016417 -0.018817242 -0.0609052 -0.036000866 -0.06103985 0.026017949 0.021657739
0.019049847 -0.010027672 -0.0737905 -0.046211172 -0.069426365 0.003906596 -0.018577686 -0.05463073
0.006210552 -0.08521263 -0.036881983 0.054951552 -0.022074329 -0.04462131 -0.0024698817 0.05141454
-0.0221553 -0.013879399 -0.041630004 0.01263266 -0.00026987866 -0.06005558 -0.031366408 -0.013951693
-0.029177906 0.04231895 -0.05066759 -0.018903378 -0.04687496 -0.038997464 0.034632534 0.01895063
-0.07078022 0.000527707 0.0386138 0.051218715 0.031466193 -0.025613511 0.008427121 0.0009104728
-0.053523958 -0.049257305 -0.011019286 -0.022331769 0.03890311 0.047899626 -0.029568125 -0.0622396
-0.02583589 0.02978543 -0.05097447 -0.0069518075 -0.06864856 -0.009511255 -0.054987114 -0.03550933
0.031004367 0.012282785 0.038471423 -0.017575504 0.024213256 0.03458629 -0.0571943 -0.012746897
0.019296642 0.010537916 -0.05203331 -0.046347715 0.04830571 -0.03426305 0.024183162 0.04194435
-0.0071012345 -0.053187873 -0.06260793 0.015247036 -0.0055292826 -0.060590565 -0.031513497 -0.036907654
0.050855767 -0.0022667344 0.010143089 0.009628122 0.0058086105 0.0196133 -0.072941 -0.0035583226
-0.009756522 0.0018708346 0.019394739 0.030354513 -0.043025833 0.05289372 0.02011336 0.046723016
0.0029977371 0.044467278 0.061105542 -0.038559657 -0.045626502 -0.019571673 -0.04489842 -0.052387074
-0.013682231 0.026421035 0.033005506 -0.06680231 -0.06337082 -0.038120355 -0.06062396 -0.044913817
0.0020614944 0.026120815 -0.02402447 0.0059503657 0.024026746 0.051012494 -0.06611124 -0.020162512
-0.020458963 -0.039296206 0.029652407 -0.051631376 0.04101353 0.037286535 0.012394333 -0.031781707
0.0010086405 0.0029965553 0.022226378 -0.048239253 0.03190766 -0.045188874 -0.020921811 0.0071094423
-0.023227913 -0.039946508 -0.04913846 0.02423955 -0.052651253 -0.009227354 -0.0039407555 0.0118954
-0.050078243 -0.06678618 -0.06103017 -0.061371967 -0.05953061 -0.05808589 -0.02705752 0.043396674
-0.04049099 -0.025383985 -0.078817375 -0.057788815 -0.01831856 -0.06875628 -0.06901079 -0.046103798
0.04408747 0.023047779 0.03519179 0.012736527 0.00979789 -0.033255607 -0.084711775 -0.062578104
0.042605244 -0.020512722 0.0037138315 0.042857755 0.01332806 -0.042719766 -0.008445641 0.030633796
-0.029329436 -0.06870378 -0.064571746 -0.044365134 0.025435615 -0.053565893 0.04434795 -0.04276164
0.01917943 -0.039041743 -0.025269613 -0.06638937 -0.04873308 0.021107752 0.018978855 -0.012254278
0.0059518167 -0.01065325 0.0043512844 0.011614743 0.016914882 -0.048753016 0.030198487 0.021243475
0.037041664 0.03536934 0.014092427 -0.02057291 -0.01857048 0.04006713 -0.06842289 -0.045070034
-0.064953625 0.009892047 -0.042158343 0.0032691383 -0.0012788597 -0.08217939 -0.046565127 0.023205781
0.03966949 0.04080106 -0.0047100587 0.019094648 0.047210637 -0.0089276 0.02505012 0.0072070034
0.006919587 -0.025932549 -0.0059138956 -0.067444846 0.054515872 -0.034814086 0.034382854 0.015493767
-0.06518519 -0.042994615 -0.044600245 0.014682458 -0.030041084 0.051096156 0.029289855 0.0283099
-0.05106673 -0.068956554 -0.0077322302 -0.012549158 -0.058136582 -0.03439449 -0.060757548 0.035377584
00000000: 2fce cdba 2f83 24bd 9e26 9abc bb77 79bd
00000010: a575 13bd ec04 7abd 9823 d53c 926b b13c
00000020: 6d0e 9c3c 1b4b 24bc 791f 97bd ed47 3dbd
00000030: 692f 8ebd e702 803b 3b30 98bc 79c4 5fbd
00000040: e381 cb3b f683 aebd 9011 17bd e114 613d
00000050: 39d5 b4bc d6c4 36bd bddd 21bb 0d98 523d
00000060: 087f b5bc 6b66 63bc 3984 2abd 37f9 4e3c
00000070: 807e 8db9 d7fc 75bd 107a 00bd a495 64bc
00000080: 8106 efbc a356 2d3d d288 4fbd 42db 9abc
00000090: f5ff 3fbd cebb 1fbd d8da 0d3d 5a3e 9b3c
000000a0: 38f5 90bd d155 0a3a 8129 1e3d b7ca 513d
000000b0: b2e2 003d 6dd3 d1bc e811 0a3c ccac 6e3a
000000c0: f03b 5bbd 07c2 49bd 3c8a 34bc 1df1 b6bc
000000d0: de58 1f3d 6632 443d da38 f2bc f3ee 7ebd
000000e0: caa5 d3bc 9300 f43c 9bca 50bd fdcb e3bb
000000f0: 9e97 8cbd 18d5 1bbc 2b3a 61bd 3b72 11bd
00000100: dffc fd3c bc3d 493c 3694 1d3d 81fa 8fbc
00000110: e15a c63c 5baa 0d3d 9244 6abd 5cd8 50bc
00000120: fe13 9e3c 39a7 2c3c e120 55bd 1ad7 3dbd
00000130: 35dc 453d 6957 0cbd c41b c63c d7cd 2b3d
00000140: 79b1 e8bb 87db 59bd 9638 80bd b4ce 793c
00000150: fc2e b5bb d02d 78bd 4c14 01bd 7b2c 17bd
00000160: 234e 503d 7e8d 14bb 332f 263c 45bf 1d3c
00000170: 2856 be3b 12ac a03c 1762 95bd bf32 69bb
00000180: d2d9 1fbc cb36 f53a b7e1 9e3c 07aa f83c
00000190: db3b 30bd 16a7 583d c6c4 a43c a260 3f3d
000001a0: af75 443b 5223 363d ce49 7a3d bbf0 1dbd
000001b0: dbe2 3abd c654 a0bc 68e7 37bd d493 56bd
000001c0: 702b 60bc ed70 d83c c830 073d a6cf 88bd
000001d0: 8fc8 81bd 1724 1cbd d450 78bd 8df7 37bd
000001e0: 231a 073b 52fb d53c f7ce c4bc 49fb c23b
000001f0: bdd3 c43c 7af2 503d 5465 87bd da2b a5bc
00000200: 8e99 a7bc 0ff5 20bd 9be9 f23c 6c7b 53bd
00000210: cefd 273d c4b9 183d 9a11 4b3c 892d 02bd
00000220: 5c34 843a db61 443b 1814 b63c 8696 45bd
00000230: 9bb1 023d f817 39bd 3864 abbc 53f6 e83b
00000240: 7748 bebc f39e 23bd 6945 49bd 0592 c63c
00000250: d7a8 57bd 542e 17bc 7421 81bb ece4 423c
00000260: d81e 4dbd 31c7 88bd c6fa 79bd 2c61 7bbd
00000270: 5ed6 73bd 78eb 6dbd bba7 ddbc b6c0 313d
00000280: e1d9 25bd 13f2 cfbc 016b a1bd f7b3 6cbd
00000290: ce10 96bc 18d0 8cbd 8755 8dbd 56d7 3cbd
000002a0: 1095 343d b2ce bc3c 4425 103d deac 503c
000002b0: 5487 203c 0837 08bd 5e7d adbd f328 80bd
000002c0: d682 2e3d 4c0a a8bc c163 733b 9d8b 2f3d
000002d0: ef5d 5a3c ecfa 2ebd 965f 0abc baf3 fa3c
000002e0: 4944 f0bc 91b4 8cbd 313e 84bd 37b8 35bd
000002f0: 5a5e d03c e967 5bbd 32a6 353d d426 2fbd
00000300: 2e1e 9d3c 3cea 1fbd 3802 cfbc 26f7 87bd
00000310: 579c 47bd 2aea ac3c 8b79 9b3c 2bc6 48bc
00000320: 7507 c33b f88a 2ebc 3895 8e3b c34b 3e3c
00000330: 1491 8a3c 3eb1 47bd d162 f73c cc06 ae3c
00000340: 00b9 173d 71df 103d ece3 663c 8588 a8bc
00000350: 1f21 98bc 6e1d 243d 4d21 8cbd 5b9b 38bd
00000360: 6806 85bd 4112 223c 3aae 2cbd 0a3f 563b
00000370: 699f a7ba ab4d a8bd 13bb 3ebd 0d1a be3c
00000380: 7a7c 223d 031f 273d d656 9abb 616c 9c3c
00000390: f15f 413d 1245 12bc e935 cd3c ba28 ec3b
000003a0: b4bd e23b 7f70 d4bc 5ac9 c1bb 8620 8abd
000003b0: 094c 5f3d 3799 0ebd 09d5 0c3d 92d9 7d3c
000003c0: d07f 85bd 1f1b 30bd bfae 36bd b18e 703c
000003d0: b818 f6bc 344a 513d 47f1 ef3c 2aea e73c
000003e0: 592b 51bd 1839 8dbd a65e fdbb fc9a 4dbc
000003f0: a020 6ebd 3de1 0cbd e8dc 78bd 16e8 103d

fc1.bias f4 [128]
-0.011378164 -0.00610279 -0.057484824 -0.026187433 -0.015902003 -0.037015893 0.01690879 -0.046335433
-0.022441978 -0.047623903 0.0016220515 0.0068851714 -0.019863363 0.03096891 0.015609875 0.07148616
-0.045208994 -0.037631575 -0.01823813 -0.001338128 0.015736595 -0.059508312 0.04318418 0.017751742
-0.020584237 -0.012329417 -0.040435683 0.007002393 0.027815893 -0.006491987 0.05455893 0.04458741
0.021825965 -0.040043868 0.08190539 -0.03136183 0.012329325 -0.03462417 0.0031487541 0.015399074
-0.022007845 -0.04432544 0.012202865 -0.08164939 -0.020542372 0.04817393 0.05568644 -0.03616452
0.05489627 0.011835588 -0.06895322 0.03710283 -0.054483484 -0.05151586 -0.06552464 -0.07108425
-0.0082070725 -0.05430251 0.045060635 0.054551095 -0.07539601 0.04614561 -0.012070068 0.0052272603
0.06463268 -0.0014109643 0.012160501 0.017602053 0.056428228 0.0031173513 0.014071264 -0.03423263
0.048090383 -0.058483522 -0.047709838 -0.014923306 0.038069732 -0.01952716 0.023444453 0.0018049874
0.052035008 -0.058590923 -0.06926427 -0.034931917 0.028622985 -0.04576703 0.020989204 -0.020624401
0.06503929 -0.010398325 0.031204585 0.049213983 0.019461388 -0.008968763 0.020125695 0.029717315
-0.061332017 -0.064186044 0.009112468 0.010448449 0.01593069 0.08509131 -0.012277912 -0.003382794
0.048481178 -0.029189989 0.04698052 0.050493866 0.06482588 0.05999125 0.06771751 -0.05858014
-0.06696636 0.04149495 0.033982277 0.019969828 0.029025573 0.01728946 0.06029659 0.04217674
0.010320815 0.05972902 -0.011375716 -0.02825841 -0.018888062 0.00049068907 -0.041193787 -0.03584403
00000000: 7b6b 3abc eaf9 c7bb 3575 6bbd 0787 d6bc
00000010: eb44 82bc fa9d 17bd 4e84 8a3c 39ca 3dbd
00000020: 3dd8 b7bc 4811 43bd 049b d43a 019d e13b
00000030: 7eb8 a2bc 83b2 fd3c 90c0 7f3c 5667 923d
00000040: 112d 39bd 9123 1abd 2168 95bc 2064 afba
00000050: 08ea 803c fdbe 73bd e5e1 303d 1a6c 913c
00000060: 46a0 a8bc 5301 4abc e39f 25bd 5474 e53b
00000070: 28de e33c bcba d4bb 2f79 5f3d 4aa1 363d
00000080: 5ecc b23c 0a05 24bd 03be a73d 4375 00bd
00000090: f000 4a3c 13d2 0dbd 545b 4e3b 664c 7c3c
000000a0: cc49 b4bc 988e 35bd 87ee 473c cc37 a7bd
000000b0: 7a48 a8bc 0752 453d 7717 643d 3f21 14bd
000000c0: e9da 603d 0eea 413c 5937 8dbd 23f9 173d
000000d0: 132a 5fbd 4b02 53bd c831 86bd 9f94 91bd
000000e0: f576 06bc 4f6c 5ebd 8091 383d f870 5f3d
000000f0: 3969 9abd 2e03 3d3d 89c1 45bc 7049 ab3b
00000100: 235e 843d 1bf0 b8ba d73c 473c 2e32 903c
00000110: 4921 673d 7a4c 4c3b 298b 663c 8437 0cbd
00000120: 6cfa 443d 6b8c 6fbd 646b 43bd e280 74bc
00000130: 02ef 1b3d 6cf7 9fbc 950e c03c 5495 ec3a
00000140: a922 553d 09fd 6fbd 6dda 8dbd c514 0fbd
00000150: c07a ea3c 3676 3bbd 8df1 ab3c 81f4 a8bc
00000160: 5233 853d bc5d 2abc c2a0 ff3c 9a94 493d
00000170: 7d6d 9f3c b8f1 12bc a4de a43c ba71 f33c
00000180: 4837 7bbd f973 83bd 764c 153c f92f 2b3c
00000190: 1481 823c 5a44 ae3d 4c29 49bc deb1 5dbb
000001a0: 3394 463d d81f efbc a56e 403d a8d2 4e3d
000001b0: 6ec3 843d 63b9 753d 7aaf 8a3d bbf1 6fbd
000001c0: a925 89bd 9cf6 293d 0031 0b3d c497 a33c
000001d0: 0ac7 ed3c a0a2 8d3c 8ff9 763d 84c1 2c3d
000001e0: a318 293c 6ba6 743d 3661 3abc 2e7e e7bc
000001f0: 23bb 9abc 96a1 003a d1ba 28bd 31d1 12bd

fc2.weight f4 [10, 128]
-0.037400264 0.087127104 -0.069505855 0.028255688 -0.15056567 0.07831546 -0.008120296 0.113368936
-0.11529098 -0.0905929 0.05662868 -0.015015516 -0.17826672 -0.16059022 -0.136013 -0.203757
-0.10067745 0.089013346 -0.0043194196 -0.07598506 0.009535255 0.09496492 0.044420395 -0.08283655
0.0674154 -0.18976776 0.06783179 -0.23079632 -0.066334255 0.08414483 -0.20884308 -0.0145476
-0.0004718988 -0.09064256 -0.11311391 -0.23346366 0.0541273 0.16485594 -0.0098079685 0.07152378
0.14638409 0.11945649 -0.009801732 -0.017628845 -0.17347614 -0.24728924 -0.10436179 -0.08334654
-0.072539434 -0.097016916 0.049907114 -0.14553447 -0.016584551 0.11431133 -0.14891659 -0.12579064
-0.10081282 -0.046383545 -0.033604987 -0.034174297 -0.04727642 -0.15565331 -0.05874545 -0.017253853
-0.12247894 -0.014354315 0.069898374 0.08221929 -0.23215929 0.08047472 0.035340846 0.12102671
0.030049615 -0.17087974 0.09255157 -0.00042542955 0.03085534 -0.16155471 0.06066567 0.09118008
0.07802565 0.0008897074 0.040264778 -0.22629876 0.11491012 -0.048462704 0.054236766 0.08624556
-0.14022084 0.083041675 -0.10975905 0.1183898 -0.04939551 0.07977672 0.083845355 0.0849425
-0.13870819 -0.09665029 0.13876455 -0.020007972 0.094321355 0.11071638 -0.16541746 0.07193945
0.0021878146 -0.13269052 -0.03459436 0.07385132 0.10947884 -0.25512022 -0.03922011 -0.03257847
-0.07183308 -0.14503092 -0.013724909 -0.030454177 0.17996387 0.09596658 -0.0892462 -0.20261599
-0.039886054 0.07840841 -0.1264021 0.0760321 -0.07581736 0.058369126 0.06543036 -0.21794955
-0.05315944 0.058963362 -0.049345568 -0.13512051 0.10648483 -0.19324881 -0.2064423 -0.0035285996
-0.15491623 -0.033844553 0.13500714 -0.19163373 0.027144821 -0.12871443 -0.039503966 0.031255543
0.02540016 -0.06416398 -0.14415388 0.04704893 -0.08443487 -0.17980428 0.02955889 -0.0276607
-0.16269542 0.091032974 -0.16744934 -0.17479289 -0.06555901 -0.08847659 0.078314245 0.071045704
0.046402 -0.24432157 0.12973012 -0.11121196 -0.044088617 0.12010903 -0.19246173 -0.027417148
-0.15279639 -0.124323204 0.026978068 -0.044610854 -0.038332213 0.06366471 -0.0019247056 0.05258416
-0.006578698 -0.009158214 -0.09072471 0.124460004 0.022800826 -0.19736363 -0.22398202 -0.1401601
0.08924217 -0.05820091 0.08428992 0.016202157 -0.16315618 0.11910803 -0.10478213 -0.0191205
0.071643196 0.15411499 -0.018698327 0.1382218 -0.11897484 -0.0485663 -0.014810906 0.1292928
0.074069284 0.05680156 -0.102293335 0.07114187 0.004078427 0.060901612 0.019778358 -0.14365052
0.12268315 0.013140277 -0.14197406 0.056641016 -0.24314311 -0.004713709 -0.062159773 -0.17642508
0.08313823 -0.26211774 0.117298245 0.035941724 0.11748138 0.07558659 -0.19726256 0.064298995
-0.23678763 -0.17781216 -0.05232765 0.0034688788 -0.18734479 0.14857733 -0.13528845 -0.19947357
0.14552717 -0.31273717 0.11852531 -0.049683277 0.106574535 0.050698694 0.06414639 -0.07636667
-0.048511814 -0.07668394 0.052268974 0.031614628 0.21885742 -0.1010582 0.0818005 0.13820134
-0.11680107 -0.13539767 0.13619417 0.09009873 0.055421807 -0.1845095 -0.0495038 0.08882523
00000000: 0531 19bd b26f b23d 1659 8ebd 7978 e73c
00000010: e32d 1abe db63 a03d fd0a 05bc f92d e83d
00000020: ad1d ecbd c588 b9bd 7af3 673d a403 76bc
00000030: 8d8b 36be c371 24be fe46 0bbe ada5 50be
00000040: fb2f cebd a14c b63d eb89 8dbb 0e9e 9bbd
00000050: c239 1c3c f87c c23d 29f2 353d 36a6 a9bd
00000060: 1611 8a3d 7b52 42be 65eb 8a3d df55 6cbe
00000070: 41da 87bd 2054 ac3d f6da 55be 0f59 6ebc
00000080: 2f69 f7b9 cea2 b9bd 44a8 e7bd 1911 6fbe
00000090: 96b4 5d3d ffcf 283e 9ab1 20bc 0f7b 923d
000000a0: b6e5 153e 9ba5 f43d 7297 20bc 5e6a 90bc
000000b0: bba3 31be 6439 7dbe a2bb d5bd 97b1 aabd
000000c0: 8e8f 94bd ceb0 c6bd 676b 4c3d fd06 15be
000000d0: 53dc 87bc 0f1c ea3d 977d 18be 43cf 00be
000000e0: f476 cebd acfc 3dbd 62a5 09bd 59fa 0bbd
000000f0: eba4 41bd 9563 1fbe 129f 70bd f457 8dbc
00000100: 3dd6 fabd 5c2e 6bbc e126 8f3d 9662 a83d
00000110: 2abb 6dbe eecf a43d 90c1 103d dadc f73d
00000120: 9c2a f63c 19fb 2ebe ad8b bd3d 300c dfb9
00000130: 57c4 fc3c 996e 25be 917c 783d 9fbc ba3d
00000140: e9cb 9f3d 413b 693a aeec 243d ddba 67be
00000150: ff55 eb3d d480 46bd 5f27 5e3d 83a1 b03d
00000160: 0d96 0fbe c111 aa3d 5ac9 e0bd 5a76 f23d
00000170: f252 4abd fa61 a33d 1db7 ab3d 55f6 ad3d
00000180: 8509 0ebe 96f0 c5bd 4b18 0e3e c2e7 a3bc
00000190: 8e2b c13d 45bf e23d 3263 29be fe54 933d
000001a0: 7061 0f3b 06e0 07be d1b2 0dbd 5c3f 973d
000001b0: 7136 e03d 1e9f 82be 44a5 20bd 0071 05bd
000001c0: 391d 93bd fc82 14be 71de 60bc 0a7b f9bc
000001d0: 7348 383e 208a c43d b6c6 b6bd 917a 4fbe
000001e0: 8f5f 23bd 9794 a03d 8d6f 01be b8b6 9b3d
000001f0: 2246 9bbd 7714 6f3d 5a00 863d 2b2e 5fbe
00000200: b7bd 59bd 9183 713d 941e 4abd 085d 0abe
00000210: b814 da3d 04e3 45be 9c65 53be 1440 67bb
00000220: 5ca2 1ebe 96a0 0abd 503f 0a3e a23b 44be
00000230: d15e de3c b7cd 03be e9ce 21bd d005 003d
00000240: ff13 d03c 6868 83bd 139d 13be 61b6 403d
00000250: 30ec acbd 9d1e 38be 7c25 f23c b198 e2bc
00000260: a199 26be 7f6f ba3d d777 2bbe e8fc 32be
00000270: cd43 86bd 3733 b5bd 3863 a03d 6980 913d
00000280: 0610 3e3d 6f2f 7abe f9d7 043e 19c3 e3bd
00000290: 4496 34bd b9fb f53d b014 45be ed99 e0bc
000002a0: a876 1cbe 2a9d febd 1c01 dd3c dfb9 36bd
000002b0: 3d02 1dbd a562 823d 6746 fcba 7d62 573d
000002c0: 1e92 d7bb 550c 16bc e0cd b9bd e3e4 fe3d
000002d0: ccc8 ba3c b119 4abe 8b5b 65be 2186 0fbe
000002e0: 99c4 b63d 1464 6ebd 32a0 ac3d 63ba 843c
000002f0: 6a12 27be e9ee f33d 0398 d6bd 98a2 9cbc
00000300: abb9 923d 52d0 1d3e 3c2d 99bc 048a 0d3e
00000310: 15a9 f3bd 75ed 46bd 71a9 72bc 5565 043e
00000320: a3b1 973d c1a8 683d 2b7f d1bd d4b2 913d
00000330: 53a4 853b f873 793d 3906 a23c 1f19 13be
00000340: 4e41 fb3d 514a 573c a661 11be 6900 683d
00000350: 82fa 78be 7575 9abb 3f9b 7ebd c7a8 34be
00000360: 6044 aa3d 4c34 86be 103a f03d a137 133d
00000370: 149a f03d 24cd 9a3d 32ff 49be 31af 833d
00000380: 7578 72be 6414 36be 8555 56bd 2156 633b
00000390: 50d7 3fbe a824 183e 0e89 0abe cd42 4cbe
000003a0: 1305 153e 161f a0be 66bd f23d b180 4bbd
000003b0: c043 da3d 6fa9 4f3d 2f5f 833d 2166 9cbd
000003c0: 53b4 46bd 780c 9dbd fe17 563d 577e 013d
000003d0: 291c 603e 9af7 cebd 0587 a73d a784 0d3e
000003e0: 6635 efbd b0a5 0abe 7c76 0b3e af85 b83d
000003f0: fa01 633d 0ff0 3cbe 7fc4 4abd 01ea b53d

fc2.bias f4 [10]
0.0083262175 0.016876291 0.046534956 0.07758111 -0.056258373 -0.033663247 0.03041414 -0.018491207
-0.0041599707 -0.07041961
00000000: b06a 083c 2640 8a3c 709b 3e3d d8e2 9e3d
00000010: 2e6f 66bd 79e2 09bd 1327 f93c df7a 97bc
00000020: 5d50 88bb 2838 90bd

onnx::Conv_32 f4 [6, 1, 5, 5]
-0.07863924 0.17284302 -0.34782776 -0.36239663 -1.0145794 0.07904492 0.41613483 1.376943
0.52560496 -1.9298205 0.8455025 -1.3199857 0.072582014 0.41486412 0.48332042 -0.69405776
-0.2533769 0.21339774 1.484221 1.4633261 0.3704924 0.51789165 -0.900454 -0.8138471
-0.25679883 0.35679406 -0.26532453 0.6933137 0.60084563 0.25192717 -0.13581294 0.8547808
-0.14467378 -0.1616289 0.06358814 -0.7191811 -0.5674574 0.005783758 0.13341548 0.13263135
-0.7621248 -0.46626654 -1.2946703 -1.2437773 -0.5549588 0.17114447 -0.20988476 0.1589628
0.55096805 -0.30076316 0.39550713 0.14506787 0.43276638 0.28157467 -0.1784734 -0.39082515
-0.14215945 0.27574024 -0.16570547 -0.6166871 0.52391964 0.12513396 -0.38715366 -0.06105484
-0.5976658 0.37172082 -0.3442985 -0.15033239 -0.48189366 -0.72122324 0.025980208 0.33793125
0.32573307 -0.6699938 -0.108643964 -0.30945128 -0.15827169 -0.41533613 0.6153911 -0.42159367
-0.22792703 -0.5823585 -0.1301511 -0.17502367 0.10610442 -0.5727889 -0.39600027 0.031005034
0.11693806 -0.43671733 -0.29167864 -0.4219758 0.5540122 0.14216924 0.70977384 0.11078533
0.72256 0.14433785 0.5443411 0.25792214 -1.0797098 -0.7210859 -1.004776 -0.6160676
-0.35415056 0.20170887 0.3669876 -0.09486682 -0.078837164 -0.6969684 0.7860155 -0.13267678
-0.11832239 -0.21612419 0.43338817 -0.45636055 -0.34277976 0.13006814 0.22622319 -0.22013219
-0.2572323 0.55714965 0.46817 0.40375718 -0.03213863 -0.34387335 0.87144196 0.67173815
0.06722083 -0.12613703 0.8077866 0.7760257 -0.7429307 -0.8396834 0.6046605 0.88660216
-0.8259346 -1.3969123 0.93253833 -0.50813365 0.110234484 -0.6997017 -0.34597865 0.681869
-0.21802972 0.5635656 -0.4050402 -0.14473122 0.09882395 -0.168026
00000000: 9c0d a1bd c3fd 303e 7b16 b2be 0d8c b9be
00000010: bddd 81bf 4ee2 a13d a00f d53e ab3f b03f
00000020: 0c8e 063f 5c04 f7bf da72 583f 4bf5 a8bf
00000030: e1a5 943d 1269 d43e c675 f73e c5ad 31bf
00000040: 9eba 81be f084 5a3e f4fa bd3f 454e bb3f
00000050: 2eb1 bd3e 8c94 043f 2784 66bf 4958 50bf
00000060: 237b 83be b6ad b63e 9ed8 87be 027d 313f
00000070: 05d1 193f 99fc 803e 8c12 0bbe ead2 5a3f
00000080: 5d25 14be 0c82 25be 803a 823d 411c 38bf
00000090: e344 11bf ae85 bd3b 119e 083e 83d0 073e
000000a0: 9c1a 43bf 7dba eebe c2b7 a5bf 1834 9fbf
000000b0: c811 0ebf 7f40 2f3e 08ec 56be 25c7 223e
000000c0: 3e0c 0d3f a1fd 99be e97f ca3e ac8c 143e
000000d0: 8e93 dd3e 8e2a 903e bbc1 36be 3c1a c8be
000000e0: 3f92 11be d32d 8d3e b2ae 29be 35df 1dbf
000000f0: 991f 063f 1e23 003e 0139 c6be a414 7abd
00000100: a000 19bf 3152 be3e e547 b0be bcf0 19be
00000110: c4ba f6be 16a2 38bf 72d4 d43c 5305 ad3e
00000120: 7cc6 a63e b784 2bbf ba80 debd 6670 9ebe
00000130: f911 22be f0a6 d4be 458a 1d3f 20db d7be
00000140: b465 69be 7215 15bf 5446 05be 6839 33be
00000150: 464d d93d 4ba2 12bf 8cc0 cabe 45fe fd3c
00000160: 397d ef3d 6a99 dfbe e756 95be 360d d8be
00000170: bed3 0d3f d094 113e bdb3 353f 6be3 e23d
00000180: b1f9 383f 4dcd 133e f059 0b3f 5f0e 843e
00000190: ee33 8abf 1699 38bf 809c 80bf 9bb6 1dbf
000001a0: 3953 b5be c58c 4e3e cce5 bb3e 8949 c2bd
000001b0: 6175 a1bd 856c 32bf 5038 493f 6cdc 07be
000001c0: 0253 f2bd a94f 5dbe 0ee5 dd3e 17a8 e9be
000001d0: d480 afbe 9530 053e 0da7 673e 556a 61be
000001e0: f4b3 83be 5ca1 0e3f fab3 ef3e 43b9 ce3e
000001f0: cca3 03bd 2b10 b0be d216 5f3f 08f7 2b3f
00000200: 13ab 893d 112a 01be 1acb 4e3f 9fa9 463f
00000210: b530 3ebf 7ef5 56bf 08cb 1a3f 5cf8 623f
00000220: 7370 53bf 06ce b2bf d5ba 6e3f 0c15 02bf
00000230: 9ec2 e13d a71f 33bf 1d24 b1be f78e 2e3f
00000240: 2f43 5fbe d645 103f 6e61 cfbe 6c34 14be
00000250: 3664 ca3d 020f 2cbe

onnx::Conv_33 f4 [6]
-0.3471823 0.54203904 0.26792032 -0.060092367 0.40353101 -0.19982928
00000000: e1c1 b1be 12c3 0a3f da2c 893e 6a23 76bd
00000010: 9e9b ce3e 0ca0 4cbe

onnx::Conv_35 f4 [16, 6, 5, 5]
0.0092246225 -0.034938257 -0.051963016 -0.028902764 -0.11197871 -0.08188137 -0.039289504 -0.03371984
-0.07772159 -0.12689538 -0.16366126 -0.04546577 -0.13199864 -0.115308456 -0.022997675 -0.045592085
-0.022368701 -0.09262316 -0.032193292 -0.13365199 -0.07568456 -0.16870889 -0.11733241 0.07583082
-0.056710437 -0.20708288 -0.054769162 -0.09723318 -0.18544774 -0.07157597 0.070837565 -0.055772167
-0.10135951 -0.020312345 0.03547021 0.052749664 0.0028027925 0.12737136 -0.12747145 0.040646926
-0.068843946 -0.02822866 0.26685616 0.15522867 -0.0811536 0.022853076 0.0040862774 0.00086157117
0.043596864 -0.11800007 0.0084964195 -0.05958968 0.14168184 0.10336965 -0.015419379 -0.20197521
0.026728818 0.11171647 0.09855673 0.09829524 -0.07676 0.09684696 0.0083725285 0.1587611
0.10727199 -0.086425655 0.10006488 0.017695734 0.11205982 -0.0786162 0.053281054 0.08105848
-0.027255526 0.1533953 0.036848206 0.04807049 0.06991786 -0.028801678 -0.011394344 -0.10208297
-0.022001471 0.04807826 -0.015203219 0.0011011879 -0.11597221 -0.016253205 0.16242748 0.099798605
-0.11022547 -0.1656944 0.041190755 0.2351425 0.11701279 -0.0025191214 -0.073369764 0.07615238
0.16546832 0.22035569 0.008532849 0.09432345 -0.18205673 -0.11580153 -0.15618017 -0.056930773
-0.04582334 -0.19679257 -0.10316246 -0.08351069 -0.08643872 0.063878946 -0.25271827 -0.012469129
0.09055841 -0.057874236 -0.121896416 -0.10775748 -0.0772097 0.0750868 0.055078756 -0.083128184
0.08858159 0.049012154 0.169392 0.10063015 0.15452045 -0.07960072 -0.15597345 -0.10928207
-0.0077679544 -0.063399635 -0.106927976 -0.085617766 -0.023590475 0.0519166 0.08836676 -0.21964532
-0.120861754 -0.089519165 0.09472793 -0.016539618 -0.15857568 -0.0007877867 0.052800376 0.06480446
-0.051382784 -0.079343624 -0.061373465 -0.00065040094 0.02130319 -0.030065631 0.005982696 0.029544918
-0.028062783 -0.03451136 0.020076996 -0.042935472 -0.06127895 0.07231934 0.053238247 -0.016692068
0.042364758 0.09234327 0.14389518 0.030897476 -0.10498576 0.08450718 0.033411093 0.16766392
0.11784917 0.016916549 -0.032962278 -0.09033034 0.02998139 -0.04492345 0.089527346 -0.15818042
-0.22115077 -0.1782772 -0.12503837 0.0116346115 -0.06270782 -0.20259924 -0.049925856 -0.1114636
0.05107664 -0.14326514 -0.00047254757 0.15415534 0.25808054 0.17678759 -0.09881701 -0.019906629
0.106874615 0.120333575 0.16800232 0.0019102215 -0.020518135 0.19124961 0.20388822 0.25874865
-0.04725781 0.077450454 0.0108575905 0.027977059 0.087573215 -0.004067465 -0.114328235 -0.0014817714
0.07749181 -0.1183458 -0.11101848 -0.069007054 -0.12896942 -0.17180613 -0.11514534 0.0087154135
0.07037332 -0.12202486 -0.09721549 -0.023100687 -0.054982428 0.027477814 -0.013489296 0.06474454
0.11633908 -0.09804845 0.038336594 0.032045458 0.037125517 -0.2315553 -0.020448769 0.061364945
0.0970759 -0.02732245 -0.08138945 0.10156259 0.07776802 0.07905063 0.0096212365 0.011249747
0.027608562 -0.03670278 0.103347935 0.080744386 0.0282266 -0.082793444 -0.12225717 -0.1186075
-0.010049289 -0.088585824 -0.14723441 -0.011832304 -0.22326387 -0.25904015 -0.22046603 -0.044836767
00000000: df22 173c 6b1b 0fbd 2cd7 54bd 7dc5 ecbc
00000010: 1855 e5bd 6bb1 a7bd 08ee 20bd d11d 0abd
00000020: 7f2c 9fbd ddf0 01be d196 27be 513a 3abd
00000030: a72a 07be d726 ecbd 9f65 bcbc c4be 3abd
00000040: 913e b7bc 36b1 bdbd 1ddd 03bd 11dc 08be
00000050: 8200 9bbd 06c2 2cbe f94b f0bd 304d 9b3d
00000060: 3449 68bd 890d 54be a155 60bd 3122 c7bd
00000070: 03e6 3dbe 6c96 92bd 4913 913d 5b71 64bd
00000080: 9395 cfbd 1366 a6bc 3649 113d 0810 583d
00000090: 0eaf 373b a36d 023e e087 02be 647d 263d
000000a0: 0efe 8cbd ca3f e7bc 5fa1 883e 44f4 1e3e
000000b0: dc33 a6bd 6036 bb3c 2ee6 853b 10db 613a
000000c0: a092 323d 05aa f1bd 9134 0b3c 4f14 74bd
000000d0: 0b15 113e 78b3 d33d 90a1 7cbc 97d2 4ebe
000000e0: 65f6 da3c 9bcb e43d 1cd8 c93d 044f c93d
000000f0: 5934 9dbd b357 c63d ee2c 093c 4592 223e
00000100: 6bb1 db3d efff b0bd d1ee cc3d a5f6 903c
00000110: 9e7f e53d 8801 a1bd 3c3d 5a3d fd01 a63d
00000120: fb46 dfbc a813 1d3e 25ee 163d 90e5 443d
00000130: 1831 8f3d 7ff1 ebbc 58af 3abc e010 d1bd
00000140: 6e3c b4bc b6ed 443d ec16 79bc bc55 903a
00000150: d782 edbd 7125 85bc 6453 263e 3663 cc3d
00000160: e4bd e1bd cbab 29be a3b7 283d 32c9 703e
00000170: 67a4 ef3d d817 25bb e342 96bd c7f5 9b3d
00000180: 8770 293e eca4 613e 5dcd 0b3c a72c c13d
00000190: 146d 3abe 5a29 edbd b2ed 1fbe 3e30 69bd
000001a0: 41b1 3bbd fe83 49be d746 d3bd a707 abbd
000001b0: c906 b1bd f7d2 823d 4a64 81be 514b 4cbc
000001c0: b076 b93d 890d 6dbd d4a4 f9bd f4af dcbd
000001d0: 1f20 9ebd 1cc7 993d 439a 613d 1c3f aabd
000001e0: 446a b53d f8c0 483d 1975 2d3e 2e17 ce3d
000001f0: 9c3a 1e3e b405 a3bd 81b7 1fbe 47cf dfbd
00000200: 538a febb abd7 81bd 0efd dabd 5e58 afbd
00000210: d040 c1bc 80a6 543d a2f9 b43d b4ea 60be
00000220: 5e86 f7bd d355 b7bd b800 c23d 187e 87bc
00000230: aa61 22be 7883 4eba 3545 583d 33b8 843d
00000240: c176 52bd e97e a2bd be62 7bbd ab7f 2aba
00000250: 0784 ae3c 334c f6bc 7e0a c43b 2f08 f23c
00000260: ece3 e5bc c95b 0dbd 8378 a43c 1bdd 2fbd
00000270: a3ff 7abd 2a1c 943d 5910 5a3d cebd 88bc
00000280: ab86 2d3d 781e bd3d 4259 133e b41c fd3c
00000290: c602 d7bd 1a12 ad3d 12da 083d 17b0 2b3e
000002a0: e85a f13d 9394 8a3c 7403 07bd 1dff b8bd
000002b0: 889b f53c a701 38bd 1d5a b73d 0cfa 21be
000002c0: 5975 62be 4c8e 36be 0f0a 00be 199f 3e3c
000002d0: f56c 80bd 2d76 4fbe 0e7f 4cbd 0747 e4bd
000002e0: bd35 513d 19b4 12be 43c0 f7b9 e6da 1d3e
000002f0: 2223 843e ce07 353e 9360 cabd 3a13 a3bc
00000300: 14e1 da3d 7371 f63d cd08 2c3e 6660 fa3a
00000310: a615 a8bc f0d6 433e 13c8 503e b47a 843e
00000320: 6891 41bd 589e 9e3d 09e4 313c 2530 e53c
00000330: 9659 b33d 5f48 85bb ec24 eabd ff37 c2ba
00000340: 07b4 9e3d 485f f2bd a85d e3bd 9253 8dbd
00000350: 8f10 04be f2ed 2fbe 52d1 ebbd 18cb 0e3c
00000360: e31f 903d 2be8 f9bd ea18 c7bd a73d bdbc
00000370: 4135 61bd 2719 e13c 3502 5dbc c998 843d
00000380: 2f43 ee3d a0cd c8bd d506 1d3d 1942 033d
00000390: ed10 183d d51c 6dbe 2d84 a7bc cf59 7b3d
000003a0: bbcf c63d 55d3 dfbc 83af a6bd 0c00 d03d
000003b0: d744 9f3d 4ce5 a13d 64a2 1d3c dc50 383c
000003c0: 5a2b e23c a755 16bd 15a8 d33d 505d a53d
000003d0: 783b e73c 9c8f a9bd f861 fabd 7de8 f2bd
000003e0: c6a5 24bc 7c6c b5bd 9ec4 16be 48dc 41bc
000003f0: 499f 64be e9a0 84be d9c1 61be c2a6 37bd

onnx::Conv_36 f4 [16]
1.0784653 -0.048278663 0.23035976 0.39522126 0.16687468 -1.0393801 -1.1102301 -0.28120446
1.284455 -0.13276757 0.034867913 -1.0173321 0.26063514 2.3271856 1.1949816 1.3594123
00000000: 270b 8a3f d9bf 45bd 6ee3 6b3e 715a ca3e
00000010: 32e1 2a3e 680a 85bf 051c 8ebf 08fa 8fbe
00000020: 0569 a43f 39f4 07be a8d1 0e3d f037 82bf
00000030: f871 853e 9cf0 1440 28f5 983f 3901 ae3f
