cifar_net.pth (torch, 153501 bytes, 16 tensors)

conv1.weight f4 [6, 1, 5, 5]
00000000: 07fd 36bc e518 c93c d957 4abd 7fd1 52bd
00000010: c48d 13be b2ee 373c 6614 723d e940 483e
00000020: 8ee1 983d 8954 8cbe bded f53d 56f8 3fbe
00000030: c5e4 283c 2857 713d f794 8c3d dfe0 c9bd
00000040: dc65 13bd 0548 f83c f9da 573e 09d1 543e
00000050: 2787 573d 35a3 963d c4f4 02be 9fb8 ecbd
00000060: 7863 15bd 56cd a23d 7321 72bd 342d 1e3e
00000070: 9314 093e 8ae7 653d 93e1 f7bc bd03 433e
00000080: de06 04bd f27f 13bd 291e 683c ff13 24be
00000090: 8676 01be aee6 a83a 6081 f33c 0013 f23c
000000a0: 22e0 2dbe e2c0 d4bd d0af 93be 99e1 8dbe
000000b0: 1539 fdbd fc2e 1c3d 8a89 3fbd 1611 113d
000000c0: eb66 fb3d 553c 89bd 22b6 083e cc93 483d
000000d0: 2d97 153e aba8 c23d ebc3 76bd d417 07be
000000e0: 578e 44bd 19a0 be3d 9f1c 65bd 302a 55be
000000f0: 4319 353e 0c04 2d3d f1d2 05be 95d5 a8bc
00000100: 0197 4ebe 4d7d 003e 7105 eebd 35db 4fbd
00000110: 6a92 26be 834c 79be 83af 0f3c 939e e93d
00000120: c22f e13d 4297 67be 4c37 16bd 3bb8 a4bd
00000130: a77e 28bd ec14 ddbd fac8 233e 9f69 e0bd
00000140: 35a6 72bd 57fe 1abe cb8e 0abd 2a54 3abd
00000150: 71ea e13c 5472 18be 11ca d2bd e407 043c
00000160: 8cfb f83c 7d76 e8bd 6442 9bbd b19d e0bd
00000170: ff72 133e 2a5a 173d a4e7 3c3e dee1 eb3c
00000180: d04e 403e 30a9 193d 11e0 103e 784a 893d
00000190: 010b a7be ae1e 5fbe 2c73 9bbe f79f 3ebe
000001a0: f829 dbbd 14a7 793d aa1b e33d bfd4 eabc
000001b0: d126 c3bc 48a8 57be e235 733e 6436 24bd
000001c0: 3a72 12bd 46bf 85bd 8f19 063e 3f35 0dbe
000001d0: 9020 d4bd d8fb 203d 32ff 8b3d 3c3a 88bd
000001e0: ca2f 9fbd f564 2c3e b2dc 103e dbdc f93d
000001f0: 421c 1fbc 8429 74bd 49b0 1a3e 967a ee3d
00000200: a7ea 3e3c 9b1f b3bc a463 0f3e 5bc0 093e
00000210: 72e0 03be 1b0d 15be 45aa d63d 3361 1d3e
00000220: 549c 12be d7f6 77be a488 253e 7965 b4bd
00000230: 6d8a 9c3c 0b68 f8bd 32a8 75bd 5313 f23d
00000240: 0ccf 1abd 6113 c83d e1cb 8fbd 4d87 cdbc
00000250: 4356 8c3c d69b eebc
-0.011168725 0.024548003 -0.049400184 -0.051469322 -0.14409548 0.011226343 0.059101485 0.19556011
0.07464896 -0.27408245 0.120082356 -0.18747076 0.010308449 0.05892101 0.0686435 -0.09857344
-0.035985813 0.03030778 0.21079625 0.20782866 0.052619126 0.07355348 -0.12788683 -0.11558651
-0.036471814 0.07949321 -0.05911393 0.15446931 0.13386755 0.056129016 -0.03025893 0.19044395
-0.03223311 -0.03601069 0.014167347 -0.16023253 -0.1264287 0.0012886131 0.029724777 0.029550076
-0.16980031 -0.10388352 -0.28845072 -0.2771118 -0.12364403 0.038130745 -0.046762027 0.035416685
0.122754894 -0.067009605 0.13350728 0.048969075 0.1460845 0.09504827 -0.060245436 -0.13192683
-0.04798731 0.0930788 -0.0559355 -0.20816875 0.17685418 0.042240188 -0.13068749 -0.020609656
-0.20174791 0.12547798 -0.116221316 -0.05074616 -0.1626679 -0.24345593 0.008769873 0.11407199
0.10995437 -0.22616294 -0.03667383 -0.08042952 -0.04113641 -0.10795006 0.15994635 -0.109576456
-0.05924054 -0.15136085 -0.033827584 -0.04549042 0.02757761 -0.14887363 -0.10292447 0.008058522
0.030393384 -0.11350725 -0.075810224 -0.10967577 0.14399336 0.03695122 0.18447739 0.028794225
0.18780065 0.037514865 0.14147975 0.06703657 -0.32625583 -0.21789047 -0.30361307 -0.18615709
-0.10701364 0.060950354 0.11089261 -0.028665898 -0.02382222 -0.21060288 0.23751023 -0.040090933
-0.035753466 -0.06530623 0.13095687 -0.13789843 -0.10357773 0.039302677 0.06835784 -0.06651732
-0.07772787 0.16835387 0.14146689 0.12200328 -0.009711327 -0.059609905 0.1510631 0.11644475
0.011652625 -0.021865657 0.14002854 0.13452284 -0.12878588 -0.1455578 0.10481695 0.1536911
-0.14317447 -0.24215256 0.16165406 -0.08808417 0.019108975 -0.121292196 -0.059974857 0.11820092
-0.03779511 0.09769321 -0.07021309 -0.02508893 0.017130977 -0.029127043

conv1.bias f4 [6]
00000000: a51f af3c 4525 f93c 7e03 36be f114 65bd
00000010: 8167 5bbe c2a3 75bd
0.021377394 0.03041328 -0.1777477 -0.055928174 -0.21426202 -0.059970625

bn1.weight f4 [6]
00000000: c829 543f 941a 993f 5d60 783f 5ee4 793f
00000010: 13d0 853f 4bff 663f
0.82876253 1.1961236 0.9702204 0.97614086 1.0454124 0.90233296

bn1.bias f4 [6]
00000000: afe6 97be 5888 813b 52b1 33bd fc55 00be
00000010: e91b 98bd 418b 05be
-0.29668185 0.003953021 -0.043870278 -0.125328 -0.074271984 -0.13041402

bn1.running_mean f4 [6]
00000000: 17e1 e93c d83c b7bd cee4 90be fc43 95bd
00000010: a09f b7be 375a 44bd
0.028549714 -0.08947152 -0.28299564 -0.072883576 -0.35863972 -0.047937598

bn1.running_var f4 [6]
00000000: c7d3 623c 5e6d 913d 71a6 db3d 3bce 833d
00000010: 5958 cc3d 3159 c83c
0.013844437 0.07100938 0.107251056 0.0643582 0.099777885 0.024456592

conv2.weight f4 [16, 6, 5, 5]
00000000: a981 c13b f839 b7bc 3041 08bd 1693 97bc
00000010: f2cf 92bd 76b4 56bd b10b cebc 33d6 b0bc
00000020: 21cc 4bbd 805e a6bd 6792 d6bd 926f eebc
00000030: 550f adbd 862d 97bd 8d36 71bc 2619 efbc
00000040: b59d 6abc 1adf 72bd c0d4 a8bc 403a afbd
00000050: bc74 46bd 9130 ddbd d5d4 99bd ead6 463d
00000060: fcb3 14bd 1bc0 07be de9c 0fbd abf5 7ebd
00000070: b422 f3bd c3ae 3bbd 18bf 393d 273e 12bd
00000080: c6e3 84bd 3a0c 55bc 2304 ba3c 3d51 0a3d
00000090: ba2d eb3a 40fe a63d d91f a7bd 152a d53c
000000a0: d784 34bd 130a 94bc 19ef 2e3e 2384 cb3d
000000b0: efcb 54bd 4ab2 6f3c e56f 2b3b 2c96 103a
000000c0: 7da2 e43c ecb4 9abd 193b b23b bc40 1cbd
000000d0: 59c1 b93d 7286 873d 3cba 21bc f366 04be
000000e0: 7b2c 8c3c ee77 923d 1037 813d 4cdf 803d
000000f0: a546 49bd 69f2 7d3d c8a1 af3b bd25 d03d
00000100: 35a4 8c3d e89e 62bd 4031 833d 6d9a 393c
00000110: 2beb 923d a824 4ebd f2b5 0b3d 158c 543d
00000120: 9bef 8ebc ca1c c93d 273e c13c 8118 fc3c
00000130: b955 373d 600b 97bc 6705 efbb 97d6 85bd
00000140: aac3 66bc f022 fc3c d475 1fbc 68cc 383a
00000150: 4e0c 98bd 1f79 2abc 4ff4 d43d e1d7 823d
00000160: 7f83 90bd cc3c d9bd 3104 d83c ff24 1a3e
00000170: 8f69 993d 4c60 d3ba e262 40bd c4ae 473d
00000180: eaf0 d83d 8373 103e bbfe b23b 7454 773d
00000190: 90b0 eebd 04d3 97bd 7ec3 ccbd e447 15bd
000001a0: 9e4f f0bc 3601 01be e840 87bd 2dfa 5abd
000001b0: ada7 62bd fd7f 273d 84aa 25be 95c8 02bc
000001c0: 1875 6d3d 35c1 17bd acd0 9fbd 2747 8dbd
000001d0: 8474 4abd 7be3 443d b06c 103d 6af9 59bd
000001e0: 1f46 683d 5d84 003d d715 de3d f9ee 833d
000001f0: 6f96 ca3d 89b9 50bd 1b7e ccbd dc46 8fbd
00000200: 20f3 a2bb 3d3e 26bd be30 8cbd 9880 60bd
00000210: 436e 77bc 0722 083d e9b5 673d 4dfc 0fbe
00000220: 6775 9ebd 7cbb 6abd f963 783d 2a7a 2dbc
00000230: 82e7 cfbd 4c34 04ba 4873 0a3d 41ed 293d
00000240: b2bb 06bd f40c 50bd 22ee 20bd 124c dab9
00000250: ba70 5f3c 48ac 9dbc 3b22 783b 3c2c 993c
00000260: 227d 91bc bceb b2bc ad2c 503c 4798 debc
00000270: f0d8 1ebd 6377 3b3d 1901 0a3d ac13 2dbc
00000280: d2a2 db3c 565f 6f3d b080 ba3d 5c2f a03c
00000290: 7812 88bd 470f 5b3d 7337 ad3c 334f d93d
000002a0: 93be 983d 8a67 2f3c c7e3 aabc 8d27 6abd
000002b0: 866f 9b3c bde6 e8bc ae12 683d 8e04 cdbd
000002c0: 1e51 0fbe b410 e7bd f70f a2bd 2c46 f13b
000002d0: 248d 22bd 674b 03be fc6a 01bd d477 90bd
000002e0: a666 043d a4af b9bd cbca 9cb9 08cd c73d
000002f0: cd3f 273e 7322 e53d ab13 80bd 7368 4ebc
00000300: 3285 8a3d e7f6 9b3d 7bbf d93d 2a74 9e3a
00000310: a5bf 54bc f9e0 f73d 3f21 043e a4ae 273e
00000320: eb00 f5bc 69c4 483d 1929 e13b 5c0b 913c
00000330: e901 633d f6b2 28bb 522e 94bd c6d3 75ba
00000340: dadf 483d 5b63 99bd 23e4 8fbd 56e1 32bd
00000350: 4b28 a7bd 98ad debd 703d 95bd a5bc b43b
00000360: ff6b 363d 1328 9ebd 8f00 7cbd ce86 6fbc
00000370: 8b86 0ebd c274 8e3c 30de 0bbc b8d4 273d
00000380: 86c9 963d 5129 7ebd 9dc0 c63c f822 a63c
00000390: 4379 c03c 3d0f 16be 8407 54bc 0112 1f3d
000003a0: eea3 7b3d 8fa6 8dbc 57fa 52bd a8a2 833d
000003b0: 2697 493d 4bea 4c3d 8285 c73b fe4a e93b
000003c0: 4a22 8f3c 3348 bebc 09f3 853d 464e 513d
000003d0: 8d56 923c 0a9e 56bd 2875 9ebd 30ba 99bd
000003e0: f765 d0bb e2a1 65bd a6d4 bebd b05f f5bb
000003f0: afaf 10be 00df 27be 85df 0ebe b073 e8bc
0.0059053493 -0.022366509 -0.033265293 -0.018502753 -0.07168569 -0.052418195 -0.02515206 -0.021586513
-0.04975522 -0.08123493 -0.10477143 -0.029105935 -0.0845019 -0.0738173 -0.014722479 -0.029186796
-0.014319827 -0.059294797 -0.02060926 -0.08556032 -0.04845117 -0.10800279 -0.075112976 0.0485448
-0.03630446 -0.13256876 -0.03506171 -0.062246006 -0.118718535 -0.045820963 0.045348257 -0.035703804
-0.06488757 -0.013003403 0.02270705 0.03376888 0.0017942705 0.08153963 -0.08160371 0.026021043
-0.044072 -0.01807121 0.17083396 0.099373125 -0.0519523 0.01462991 0.0026159224 0.00055155414
0.027909512 -0.07554039 0.005439174 -0.038147673 0.09070081 0.0661744 -0.009871062 -0.12929897
0.017111054 0.07151781 0.063093305 0.062925905 -0.049139638 0.06199876 0.005359862 0.10163448
0.068672575 -0.055327326 0.06405878 0.011328322 0.07173761 -0.050327927 0.034109063 0.051891405
-0.017448237 0.09819944 0.023589207 0.030773403 0.044759486 -0.018438041 -0.007294345 -0.065350704
-0.014084736 0.030778378 -0.009732682 0.0007049502 -0.07424222 -0.010404854 0.10398161 0.06388832
-0.07056331 -0.10607299 0.026369186 0.15053175 0.07490837 -0.0016126721 -0.046969302 0.048750654
0.10592826 0.14106564 0.005462495 0.060383275 -0.116547704 -0.07413295 -0.09998225 -0.036445513
-0.02933484 -0.12598118 -0.06604177 -0.053461242 -0.05533569 0.040893544 -0.16178328 -0.007982393
0.057972997 -0.03704949 -0.07803473 -0.06898337 -0.049427524 0.048068505 0.035259902 -0.053216375
0.056707498 0.03137623 0.10844009 0.06442065 0.09891974 -0.05095819 -0.0998499 -0.06995937
-0.0049728304 -0.0405867 -0.06845234 -0.054810137 -0.015101972 0.033235576 0.056569967 -0.14061089
-0.077372365 -0.057307705 0.060642216 -0.010588208 -0.101515785 -0.0005043193 0.033801347 0.04148603
-0.032893844 -0.050793603 -0.0392896 -0.00041636877 0.013637716 -0.01924719 0.00378622 0.01869785
-0.017759863 -0.021840923 0.012705964 -0.02717222 -0.038781106 0.045768153 0.033692453 -0.010563772
0.026811037 0.05844053 0.091065764 0.019553833 -0.06644148 0.053481366 0.021144604 0.10610809
0.07458224 0.010705838 -0.020860566 -0.057166625 0.018974077 -0.028430337 0.05665844 -0.10010634
-0.13995788 -0.11282483 -0.07913201 0.0073631015 -0.039685383 -0.12821732 -0.03159617 -0.070541054
0.032324456 -0.09066704 -0.0002990573 0.097559035 0.16332932 0.11188211 -0.06253751 -0.012598145
0.06763686 0.07615452 0.10632225 0.0012089063 -0.012985145 0.12103457 0.12903307 0.16375214
-0.029907664 0.049015436 0.0068713543 0.017705612 0.055421744 -0.0025741435 -0.072353974 -0.0009377565
0.049041606 -0.07489654 -0.070259355 -0.04367193 -0.08161982 -0.10872954 -0.07287109 0.0055156522
0.044536587 -0.07722487 -0.06152397 -0.014619542 -0.03479628 0.017389659 -0.00853686 0.04097435
0.07362656 -0.06205112 0.024261767 0.020280346 0.023495322 -0.1465425 -0.012941245 0.03883553
0.061435632 -0.017291335 -0.051508274 0.064275086 0.049216412 0.050028127 0.0060889134 0.0071195355
0.017472405 -0.023227787 0.06540496 0.051100038 0.017863536 -0.05239681 -0.077371895 -0.075062156
-0.0063598114 -0.056062587 -0.09317903 -0.0074882135 -0.14129518 -0.16393661 -0.13952453 -0.028375477

conv2.bias f4 [16]
00000000: b944 433d 3f38 95bd 8d34 39bc 99ec 413a
00000010: 761a 3d3d 04ee a23d bc73 e93b 2f03 b9bd
00000020: 48b8 e6bc c9a7 23bd 5f1d 013d bc08 66bd
00000030: b404 5dbd 542a be3c dcbf 83bd a16a 8cbb
0.04767296 -0.07286119 -0.011304033 0.00073976215 0.046167813 0.07955554 0.0071243923 -0.0903381
-0.028164044 -0.039954934 0.03152215 -0.056160673 -0.053959563 0.023213543 -0.06433079 -0.004285172

bn2.weight f4 [16]
00000000: 207d 943f 3970 a43f 7c43 973f d5da 993f
00000010: 6529 9f3f 29ac a23f 3fef 9d3f 9bf9 a23f
00000020: 380d a33f a96c 9a3f 0f49 ac3f 0bf9 983f
00000030: 4def 9b3f 51ea 9a3f ec7b 903f 5ed6 943f
1.1600685 1.2846748 1.181747 1.2019907 1.2434508 1.2708789 1.2338637 1.2732424
1.2738409 1.206441 1.3459796 1.1951002 1.2182404 1.2102758 1.1287818 1.162792

bn2.bias f4 [16]
00000000: d6ee a5ba 790b 0dbd d846 a8bd ff1c 75bc
00000010: 69e1 94bd 3868 a3bd a577 0a3e 6bdd 72bc
00000020: bb11 c13c 6862 0b3d 025e bbbd 0b40 51bd
00000030: 350b 89bd d0a0 dfbd dcd7 babd 6cf8 4dbd
-0.001265968 -0.03443477 -0.082166374 -0.0149605265 -0.07269556 -0.079788625 0.13522203 -0.014823298
0.023568025 0.034029394 -0.0914879 -0.051086467 -0.06691591 -0.109193444 -0.09123203 -0.05028574

bn2.running_mean f4 [16]
00000000: 1fbf 24bf d146 83bd 74a7 30be f676 60be
00000010: c832 9bbd b31c 743f 5697 333f 9ad6 923d
00000020: 1648 36bf d709 653d 68f7 18bd 6fa5 093f
00000030: 4003 91be 7f6e 94bf e832 8bbf 1634 81bf
-0.6435413 -0.064099915 -0.17251378 -0.2192038 -0.07578045 0.9535629 0.70152795 0.07169838
-0.71203744 0.055917587 -0.03734532 0.53768057 -0.28322792 -1.1596221 -1.087491 -1.009402

bn2.running_var f4 [16]
00000000: c12f 0d3f e936 293f 283f be3e b2ae d43e
00000010: f91d cd3e d980 ab3f 744e f23e ef8e 193f
00000020: d964 f43e c732 f63e 79c4 093f 9e1a 0a3f
00000030: cd22 3a3f afc2 b03e 2267 4e3f 3df6 2f3f
0.5515099 0.6609941 0.3715756 0.41539532 0.4006193 1.3398696 0.4732548 0.59983724
0.4773319 0.48085615 0.5381542 0.53946865 0.7270935 0.34523532 0.8062612 0.68735105

fc1.weight f4 [128, 256]
00000000: 2fce cdba 2f83 24bd 9e26 9abc bb77 79bd
00000010: a575 13bd ec04 7abd 9823 d53c 926b b13c
00000020: 6d0e 9c3c 1b4b 24bc 791f 97bd ed47 3dbd
00000030: 692f 8ebd e702 803b 3b30 98bc 79c4 5fbd
00000040: e381 cb3b f683 aebd 9011 17bd e114 613d
00000050: 39d5 b4bc d6c4 36bd bddd 21bb 0d98 523d
00000060: 087f b5bc 6b66 63bc 3984 2abd 37f9 4e3c
00000070: 807e 8db9 d7fc 75bd 107a 00bd a495 64bc
00000080: 8106 efbc a356 2d3d d288 4fbd 42db 9abc
00000090: f5ff 3fbd cebb 1fbd d8da 0d3d 5a3e 9b3c
000000a0: 38f5 90bd d155 0a3a 8129 1e3d b7ca 513d
000000b0: b2e2 003d 6dd3 d1bc e811 0a3c ccac 6e3a
000000c0: f03b 5bbd 07c2 49bd 3c8a 34bc 1df1 b6bc
000000d0: de58 1f3d 6632 443d da38 f2bc f3ee 7ebd
000000e0: caa5 d3bc 9300 f43c 9bca 50bd fdcb e3bb
000000f0: 9e97 8cbd 18d5 1bbc 2b3a 61bd 3b72 11bd
00000100: dffc fd3c bc3d 493c 3694 1d3d 81fa 8fbc
00000110: e15a c63c 5baa 0d3d 9244 6abd 5cd8 50bc
00000120: fe13 9e3c 39a7 2c3c e120 55bd 1ad7 3dbd
00000130: 35dc 453d 6957 0cbd c41b c63c d7cd 2b3d
00000140: 79b1 e8bb 87db 59bd 9638 80bd b4ce 793c
00000150: fc2e b5bb d02d 78bd 4c14 01bd 7b2c 17bd
00000160: 234e 503d 7e8d 14bb 332f 263c 45bf 1d3c
00000170: 2856 be3b 12ac a03c 1762 95bd bf32 69bb
00000180: d2d9 1fbc cb36 f53a b7e1 9e3c 07aa f83c
00000190: db3b 30bd 16a7 583d c6c4 a43c a260 3f3d
000001a0: af75 443b 5223 363d ce49 7a3d bbf0 1dbd
000001b0: dbe2 3abd c654 a0bc 68e7 37bd d493 56bd
000001c0: 702b 60bc ed70 d83c c830 073d a6cf 88bd
000001d0: 8fc8 81bd 1724 1cbd d450 78bd 8df7 37bd
000001e0: 231a 073b 52fb d53c f7ce c4bc 49fb c23b
000001f0: bdd3 c43c 7af2 503d 5465 87bd da2b a5bc
00000200: 8e99 a7bc 0ff5 20bd 9be9 f23c 6c7b 53bd
00000210: cefd 273d c4b9 183d 9a11 4b3c 892d 02bd
00000220: 5c34 843a db61 443b 1814 b63c 8696 45bd
00000230: 9bb1 023d f817 39bd 3864 abbc 53f6 e83b
00000240: 7748 bebc f39e 23bd 6945 49bd 0592 c63c
00000250: d7a8 57bd 542e 17bc 7421 81bb ece4 423c
00000260: d81e 4dbd 31c7 88bd c6fa 79bd 2c61 7bbd
00000270: 5ed6 73bd 78eb 6dbd bba7 ddbc b6c0 313d
00000280: e1d9 25bd 13f2 cfbc 016b a1bd f7b3 6cbd
00000290: ce10 96bc 18d0 8cbd 8755 8dbd 56d7 3cbd
000002a0: 1095 343d b2ce bc3c 4425 103d deac 503c
000002b0: 5487 203c 0837 08bd 5e7d adbd f328 80bd
000002c0: d682 2e3d 4c0a a8bc c163 733b 9d8b 2f3d
000002d0: ef5d 5a3c ecfa 2ebd 965f 0abc baf3 fa3c
000002e0: 4944 f0bc 91b4 8cbd 313e 84bd 37b8 35bd
000002f0: 5a5e d03c e967 5bbd 32a6 353d d426 2fbd
00000300: 2e1e 9d3c 3cea 1fbd 3802 cfbc 26f7 87bd
00000310: 579c 47bd 2aea ac3c 8b79 9b3c 2bc6 48bc
00000320: 7507 c33b f88a 2ebc 3895 8e3b c34b 3e3c
00000330: 1491 8a3c 3eb1 47bd d162 f73c cc06 ae3c
00000340: 00b9 173d 71df 103d ece3 663c 8588 a8bc
00000350: 1f21 98bc 6e1d 243d 4d21 8cbd 5b9b 38bd
00000360: 6806 85bd 4112 223c 3aae 2cbd 0a3f 563b
00000370: 699f a7ba ab4d a8bd 13bb 3ebd 0d1a be3c
00000380: 7a7c 223d 031f 273d d656 9abb 616c 9c3c
00000390: f15f 413d 1245 12bc e935 cd3c ba28 ec3b
000003a0: b4bd e23b 7f70 d4bc 5ac9 c1bb 8620 8abd
000003b0: 094c 5f3d 3799 0ebd 09d5 0c3d 92d9 7d3c
000003c0: d07f 85bd 1f1b 30bd bfae 36bd b18e 703c
000003d0: b818 f6bc 344a 513d 47f1 ef3c 2aea e73c
000003e0: 592b 51bd 1839 8dbd a65e fdbb fc9a 4dbc
000003f0: a020 6ebd 3de1 0cbd e8dc 78bd 16e8 103d
-0.0015701706 -0.04016417 -0.018817242 -0.0609052 -0.036000866 -0.06103985 0.026017949 0.021657739
0.019049847 -0.010027672 -0.0737905 -0.046211172 -0.069426365 0.003906596 -0.018577686 -0.05463073
0.006210552 -0.08521263 -0.036881983 0.054951552 -0.022074329 -0.04462131 -0.0024698817 0.05141454
-0.0221553 -0.013879399 -0.041630004 0.01263266 -0.00026987866 -0.06005558 -0.031366408 -0.013951693
-0.029177906 0.04231895 -0.05066759 -0.018903378 -0.04687496 -0.038997464 0.034632534 0.01895063
-0.07078022 0.000527707 0.0386138 0.051218715 0.031466193 -0.025613511 0.008427121 0.0009104728
-0.053523958 -0.049257305 -0.011019286 -0.022331769 0.03890311 0.047899626 -0.029568125 -0.0622396
-0.02583589 0.02978543 -0.05097447 -0.0069518075 -0.06864856 -0.009511255 -0.054987114 -0.03550933
0.031004367 0.012282785 0.038471423 -0.017575504 0.024213256 0.03458629 -0.0571943 -0.012746897
0.019296642 0.010537916 -0.05203331 -0.046347715 0.04830571 -0.03426305 0.024183162 0.04194435
-0.0071012345 -0.053187873 -0.06260793 0.015247036 -0.0055292826 -0.060590565 -0.031513497 -0.036907654
0.050855767 -0.0022667344 0.010143089 0.009628122 0.0058086105 0.0196133 -0.072941 -0.0035583226
-0.009756522 0.0018708346 0.019394739 0.030354513 -0.043025833 0.05289372 0.02011336 0.046723016
0.0029977371 0.044467278 0.061105542 -0.038559657 -0.045626502 -0.019571673 -0.04489842 -0.052387074
-0.013682231 0.026421035 0.033005506 -0.06680231 -0.06337082 -0.038120355 -0.06062396 -0.044913817
0.0020614944 0.026120815 -0.02402447 0.0059503657 0.024026746 0.051012494 -0.06611124 -0.020162512
-0.020458963 -0.039296206 0.029652407 -0.051631376 0.04101353 0.037286535 0.012394333 -0.031781707
0.0010086405 0.0029965553 0.022226378 -0.048239253 0.03190766 -0.045188874 -0.020921811 0.0071094423
-0.023227913 -0.039946508 -0.04913846 0.02423955 -0.052651253 -0.009227354 -0.0039407555 0.0118954
-0.050078243 -0.06678618 -0.06103017 -0.061371967 -0.05953061 -0.05808589 -0.02705752 0.043396674
-0.04049099 -0.025383985 -0.078817375 -0.057788815 -0.01831856 -0.06875628 -0.06901079 -0.046103798
0.04408747 0.023047779 0.03519179 0.012736527 0.00979789 -0.033255607 -0.084711775 -0.062578104
0.042605244 -0.020512722 0.0037138315 0.042857755 0.01332806 -0.042719766 -0.008445641 0.030633796
-0.029329436 -0.06870378 -0.064571746 -0.044365134 0.025435615 -0.053565893 0.04434795 -0.04276164
0.01917943 -0.039041743 -0.025269613 -0.06638937 -0.04873308 0.021107752 0.018978855 -0.012254278
0.0059518167 -0.01065325 0.0043512844 0.011614743 0.016914882 -0.048753016 0.030198487 0.021243475
0.037041664 0.03536934 0.014092427 -0.02057291 -0.01857048 0.04006713 -0.06842289 -0.045070034
-0.064953625 0.009892047 -0.042158343 0.0032691383 -0.0012788597 -0.08217939 -0.046565127 0.023205781
0.03966949 0.04080106 -0.0047100587 0.019094648 0.047210637 -0.0089276 0.02505012 0.0072070034
0.006919587 -0.025932549 -0.0059138956 -0.067444846 0.054515872 -0.034814086 0.034382854 0.015493767
-0.06518519 -0.042994615 -0.044600245 0.014682458 -0.030041084 0.051096156 0.029289855 0.0283099
-0.05106673 -0.068956554 -0.0077322302 -0.012549158 -0.058136582 -0.03439449 -0.060757548 0.035377584

fc1.bias f4 [128]
00000000: 7b6b 3abc eaf9 c7bb 3575 6bbd 0787 d6bc
00000010: eb44 82bc fa9d 17bd 4e84 8a3c 39ca 3dbd
00000020: 3dd8 b7bc 4811 43bd 049b d43a 019d e13b
00000030: 7eb8 a2bc 83b2 fd3c 90c0 7f3c 5667 923d
00000040: 112d 39bd 9123 1abd 2168 95bc 2064 afba
00000050: 08ea 803c fdbe 73bd e5e1 303d 1a6c 913c
00000060: 46a0 a8bc 5301 4abc e39f 25bd 5474 e53b
00000070: 28de e33c bcba d4bb 2f79 5f3d 4aa1 363d
00000080: 5ecc b23c 0a05 24bd 03be a73d 4375 00bd
00000090: f000 4a3c 13d2 0dbd 545b 4e3b 664c 7c3c
000000a0: cc49 b4bc 988e 35bd 87ee 473c cc37 a7bd
000000b0: 7a48 a8bc 0752 453d 7717 643d 3f21 14bd
000000c0: e9da 603d 0eea 413c 5937 8dbd 23f9 173d
000000d0: 132a 5fbd 4b02 53bd c831 86bd 9f94 91bd
000000e0: f576 06bc 4f6c 5ebd 8091 383d f870 5f3d
000000f0: 3969 9abd 2e03 3d3d 89c1 45bc 7049 ab3b
00000100: 235e 843d 1bf0 b8ba d73c 473c 2e32 903c
00000110: 4921 673d 7a4c 4c3b 298b 663c 8437 0cbd
00000120: 6cfa 443d 6b8c 6fbd 646b 43bd e280 74bc
00000130: 02ef 1b3d 6cf7 9fbc 950e c03c 5495 ec3a
00000140: a922 553d 09fd 6fbd 6dda 8dbd c514 0fbd
00000150: c07a ea3c 3676 3bbd 8df1 ab3c 81f4 a8bc
00000160: 5233 853d bc5d 2abc c2a0 ff3c 9a94 493d
00000170: 7d6d 9f3c b8f1 12bc a4de a43c ba71 f33c
00000180: 4837 7bbd f973 83bd 764c 153c f92f 2b3c
00000190: 1481 823c 5a44 ae3d 4c29 49bc deb1 5dbb
000001a0: 3394 463d d81f efbc a56e 403d a8d2 4e3d
000001b0: 6ec3 843d 63b9 753d 7aaf 8a3d bbf1 6fbd
000001c0: a925 89bd 9cf6 293d 0031 0b3d c497 a33c
000001d0: 0ac7 ed3c a0a2 8d3c 8ff9 763d 84c1 2c3d
000001e0: a318 293c 6ba6 743d 3661 3abc 2e7e e7bc
000001f0: 23bb 9abc 96a1 003a d1ba 28bd 31d1 12bd
-0.011378164 -0.00610279 -0.057484824 -0.026187433 -0.015902003 -0.037015893 0.01690879 -0.046335433
-0.022441978 -0.047623903 0.0016220515 0.0068851714 -0.019863363 0.03096891 0.015609875 0.07148616
-0.045208994 -0.037631575 -0.01823813 -0.001338128 0.015736595 -0.059508312 0.04318418 0.017751742
-0.020584237 -0.012329417 -0.040435683 0.007002393 0.027815893 -0.006491987 0.05455893 0.04458741
0.021825965 -0.040043868 0.08190539 -0.03136183 0.012329325 -0.03462417 0.0031487541 0.015399074
-0.022007845 -0.04432544 0.012202865 -0.08164939 -0.020542372 0.04817393 0.05568644 -0.03616452
0.05489627 0.011835588 -0.06895322 0.03710283 -0.054483484 -0.05151586 -0.06552464 -0.07108425
-0.0082070725 -0.05430251 0.045060635 0.054551095 -0.07539601 0.04614561 -0.012070068 0.0052272603
0.06463268 -0.0014109643 0.012160501 0.017602053 0.056428228 0.0031173513 0.014071264 -0.03423263
0.048090383 -0.058483522 -0.047709838 -0.014923306 0.038069732 -0.01952716 0.023444453 0.0018049874
0.052035008 -0.058590923 -0.06926427 -0.034931917 0.028622985 -0.04576703 0.020989204 -0.020624401
0.06503929 -0.010398325 0.031204585 0.049213983 0.019461388 -0.008968763 0.020125695 0.029717315
-0.061332017 -0.064186044 0.009112468 0.010448449 0.01593069 0.08509131 -0.012277912 -0.003382794
0.048481178 -0.029189989 0.04698052 0.050493866 0.06482588 0.05999125 0.06771751 -0.05858014
-0.06696636 0.04149495 0.033982277 0.019969828 0.029025573 0.01728946 0.06029659 0.04217674
0.010320815 0.05972902 -0.011375716 -0.02825841 -0.018888062 0.00049068907 -0.041193787 -0.03584403

fc2.weight f4 [10, 128]
00000000: 0531 19bd b26f b23d 1659 8ebd 7978 e73c
00000010: e32d 1abe db63 a03d fd0a 05bc f92d e83d
00000020: ad1d ecbd c588 b9bd 7af3 673d a403 76bc
00000030: 8d8b 36be c371 24be fe46 0bbe ada5 50be
00000040: fb2f cebd a14c b63d eb89 8dbb 0e9e 9bbd
00000050: c239 1c3c f87c c23d 29f2 353d 36a6 a9bd
00000060: 1611 8a3d 7b52 42be 65eb 8a3d df55 6cbe
00000070: 41da 87bd 2054 ac3d f6da 55be 0f59 6ebc
00000080: 2f69 f7b9 cea2 b9bd 44a8 e7bd 1911 6fbe
00000090: 96b4 5d3d ffcf 283e 9ab1 20bc 0f7b 923d
000000a0: b6e5 153e 9ba5 f43d 7297 20bc 5e6a 90bc
000000b0: bba3 31be 6439 7dbe a2bb d5bd 97b1 aabd
000000c0: 8e8f 94bd ceb0 c6bd 676b 4c3d fd06 15be
000000d0: 53dc 87bc 0f1c ea3d 977d 18be 43cf 00be
000000e0: f476 cebd acfc 3dbd 62a5 09bd 59fa 0bbd
000000f0: eba4 41bd 9563 1fbe 129f 70bd f457 8dbc
00000100: 3dd6 fabd 5c2e 6bbc e126 8f3d 9662 a83d
00000110: 2abb 6dbe eecf a43d 90c1 103d dadc f73d
00000120: 9c2a f63c 19fb 2ebe ad8b bd3d 300c dfb9
00000130: 57c4 fc3c 996e 25be 917c 783d 9fbc ba3d
00000140: e9cb 9f3d 413b 693a aeec 243d ddba 67be
00000150: ff55 eb3d d480 46bd 5f27 5e3d 83a1 b03d
00000160: 0d96 0fbe c111 aa3d 5ac9 e0bd 5a76 f23d
00000170: f252 4abd fa61 a33d 1db7 ab3d 55f6 ad3d
00000180: 8509 0ebe 96f0 c5bd 4b18 0e3e c2e7 a3bc
00000190: 8e2b c13d 45bf e23d 3263 29be fe54 933d
000001a0: 7061 0f3b 06e0 07be d1b2 0dbd 5c3f 973d
000001b0: 7136 e03d 1e9f 82be 44a5 20bd 0071 05bd
000001c0: 391d 93bd fc82 14be 71de 60bc 0a7b f9bc
000001d0: 7348 383e 208a c43d b6c6 b6bd 917a 4fbe
000001e0: 8f5f 23bd 9794 a03d 8d6f 01be b8b6 9b3d
000001f0: 2246 9bbd 7714 6f3d 5a00 863d 2b2e 5fbe
00000200: b7bd 59bd 9183 713d 941e 4abd 085d 0abe
00000210: b814 da3d 04e3 45be 9c65 53be 1440 67bb
00000220: 5ca2 1ebe 96a0 0abd 503f 0a3e a23b 44be
00000230: d15e de3c b7cd 03be e9ce 21bd d005 003d
00000240: ff13 d03c 6868 83bd 139d 13be 61b6 403d
00000250: 30ec acbd 9d1e 38be 7c25 f23c b198 e2bc
00000260: a199 26be 7f6f ba3d d777 2bbe e8fc 32be
00000270: cd43 86bd 3733 b5bd 3863 a03d 6980 913d
00000280: 0610 3e3d 6f2f 7abe f9d7 043e 19c3 e3bd
00000290: 4496 34bd b9fb f53d b014 45be ed99 e0bc
000002a0: a876 1cbe 2a9d febd 1c01 dd3c dfb9 36bd
000002b0: 3d02 1dbd a562 823d 6746 fcba 7d62 573d
000002c0: 1e92 d7bb 550c 16bc e0cd b9bd e3e4 fe3d
000002d0: ccc8 ba3c b119 4abe 8b5b 65be 2186 0fbe
000002e0: 99c4 b63d 1464 6ebd 32a0 ac3d 63ba 843c
000002f0: 6a12 27be e9ee f33d 0398 d6bd 98a2 9cbc
00000300: abb9 923d 52d0 1d3e 3c2d 99bc 048a 0d3e
00000310: 15a9 f3bd 75ed 46bd 71a9 72bc 5565 043e
00000320: a3b1 973d c1a8 683d 2b7f d1bd d4b2 913d
00000330: 53a4 853b f873 793d 3906 a23c 1f19 13be
00000340: 4e41 fb3d 514a 573c a661 11be 6900 683d
00000350: 82fa 78be 7575 9abb 3f9b 7ebd c7a8 34be
00000360: 6044 aa3d 4c34 86be 103a f03d a137 133d
00000370: 149a f03d 24cd 9a3d 32ff 49be 31af 833d
00000380: 7578 72be 6414 36be 8555 56bd 2156 633b
00000390: 50d7 3fbe a824 183e 0e89 0abe cd42 4cbe
000003a0: 1305 153e 161f a0be 66bd f23d b180 4bbd
000003b0: c043 da3d 6fa9 4f3d 2f5f 833d 2166 9cbd
000003c0: 53b4 46bd 780c 9dbd fe17 563d 577e 013d
000003d0: 291c 603e 9af7 cebd 0587 a73d a784 0d3e
000003e0: 6635 efbd b0a5 0abe 7c76 0b3e af85 b83d
000003f0: fa01 633d 0ff0 3cbe 7fc4 4abd 01ea b53d
-0.037400264 0.087127104 -0.069505855 0.028255688 -0.15056567 0.07831546 -0.008120296 0.113368936
-0.11529098 -0.0905929 0.05662868 -0.015015516 -0.17826672 -0.16059022 -0.136013 -0.203757
-0.10067745 0.089013346 -0.0043194196 -0.07598506 0.009535255 0.09496492 0.044420395 -0.08283655
0.0674154 -0.18976776 0.06783179 -0.23079632 -0.066334255 0.08414483 -0.20884308 -0.0145476
-0.0004718988 -0.09064256 -0.11311391 -0.23346366 0.0541273 0.16485594 -0.0098079685 0.07152378
0.14638409 0.11945649 -0.009801732 -0.017628845 -0.17347614 -0.24728924 -0.10436179 -0.08334654
-0.072539434 -0.097016916 0.049907114 -0.14553447 -0.016584551 0.11431133 -0.14891659 -0.12579064
-0.10081282 -0.046383545 -0.033604987 -0.034174297 -0.04727642 -0.15565331 -0.05874545 -0.017253853
-0.12247894 -0.014354315 0.069898374 0.08221929 -0.23215929 0.08047472 0.035340846 0.12102671
0.030049615 -0.17087974 0.09255157 -0.00042542955 0.03085534 -0.16155471 0.06066567 0.09118008
0.07802565 0.0008897074 0.040264778 -0.22629876 0.11491012 -0.048462704 0.054236766 0.08624556
-0.14022084 0.083041675 -0.10975905 0.1183898 -0.04939551 0.07977672 0.083845355 0.0849425
-0.13870819 -0.09665029 0.13876455 -0.020007972 0.094321355 0.11071638 -0.16541746 0.07193945
0.0021878146 -0.13269052 -0.03459436 0.07385132 0.10947884 -0.25512022 -0.03922011 -0.03257847
-0.07183308 -0.14503092 -0.013724909 -0.030454177 0.17996387 0.09596658 -0.0892462 -0.20261599
-0.039886054 0.07840841 -0.1264021 0.0760321 -0.07581736 0.058369126 0.06543036 -0.21794955
-0.05315944 0.058963362 -0.049345568 -0.13512051 0.10648483 -0.19324881 -0.2064423 -0.0035285996
-0.15491623 -0.033844553 0.13500714 -0.19163373 0.027144821 -0.12871443 -0.039503966 0.031255543
0.02540016 -0.06416398 -0.14415388 0.04704893 -0.08443487 -0.17980428 0.02955889 -0.0276607
-0.16269542 0.091032974 -0.16744934 -0.17479289 -0.06555901 -0.08847659 0.078314245 0.071045704
0.046402 -0.24432157 0.12973012 -0.11121196 -0.044088617 0.12010903 -0.19246173 -0.027417148
-0.15279639 -0.124323204 0.026978068 -0.044610854 -0.038332213 0.06366471 -0.0019247056 0.05258416
-0.006578698 -0.009158214 -0.09072471 0.124460004 0.022800826 -0.19736363 -0.22398202 -0.1401601
0.08924217 -0.05820091 0.08428992 0.016202157 -0.16315618 0.11910803 -0.10478213 -0.0191205
0.071643196 0.15411499 -0.018698327 0.1382218 -0.11897484 -0.0485663 -0.014810906 0.1292928
0.074069284 0.05680156 -0.102293335 0.07114187 0.004078427 0.060901612 0.019778358 -0.14365052
0.12268315 0.013140277 -0.14197406 0.056641016 -0.24314311 -0.004713709 -0.062159773 -0.17642508
0.08313823 -0.26211774 0.117298245 0.035941724 0.11748138 0.07558659 -0.19726256 0.064298995
-0.23678763 -0.17781216 -0.05232765 0.0034688788 -0.18734479 0.14857733 -0.13528845 -0.19947357
0.14552717 -0.31273717 0.11852531 -0.049683277 0.106574535 0.050698694 0.06414639 -0.07636667
-0.048511814 -0.07668394 0.052268974 0.031614628 0.21885742 -0.1010582 0.0818005 0.13820134
-0.11680107 -0.13539767 0.13619417 0.09009873 0.055421807 -0.1845095 -0.0495038 0.08882523

fc2.bias f4 [10]
00000000: b06a 083c 2640 8a3c 709b 3e3d d8e2 9e3d
00000010: 2e6f 66bd 79e2 09bd 1327 f93c df7a 97bc
00000020: 5d50 88bb 2838 90bd
0.0083262175 0.016876291 0.046534956 0.07758111 -0.056258373 -0.033663247 0.03041414 -0.018491207
-0.0041599707 -0.07041961
